2025/0225/motivation_model.pth (torch, 4823 bytes, 6 tensors)

mind_hidden1.weight f4 [32, 4]
0.28557527 1.0662961 -0.06809824 -0.06362253 0.5169667 -0.28321856 -0.03004391 0.36703646
-0.48277196 -0.6663575 0.8966905 0.50787526 0.23918591 -0.69460005 0.09792012 0.3260397
-0.24503884 0.00320974 0.19416273 -0.28183678 1.0576081 -0.3318614 0.12880488 -0.27234653
-0.26603866 -0.4005996 0.26116866 0.10846102 -0.3823657 -0.24594045 0.48137942 0.15604681
0.16380745 -0.24425417 -0.17897446 -0.061626762 -0.07466042 -0.27975148 0.0336335 0.040574998
-0.4169097 0.2321928 -0.50372595 -0.44004995 0.5492379 -0.21180747 -0.2091746 -0.019462615
0.2512468 -0.52561617 0.9748416 0.31605375 0.6075028 0.5515199 -0.2312517 0.17831077
-0.7000653 -0.5076992 -0.64341694 -0.9864191 1.1036167 -0.19324432 0.3333882 -0.25731888
0.5449808 -0.14597327 -0.20390356 -0.26011607 0.58163273 0.66618663 -0.8895888 -1.0264586
0.11455254 0.52919704 0.26147118 0.3690291 -0.3866186 0.8303115 0.80043155 -0.005649694
0.53352237 -0.2987854 0.120566994 -0.30925205 -0.20159668 -0.11804047 0.020708919 0.24503022
-0.4558372 0.39410102 0.07528007 0.29624644 -0.019382507 -0.357661 -0.22463694 -0.29547054
0.3413653 -0.2737502 -0.14168449 -0.11128739 -0.2238812 0.11776739 -0.3986232 -0.2921051
-1.4244938 0.17294443 0.24358983 -0.005077564 -0.035018526 0.14090955 0.30017227 0.18694906
0.10898781 -0.720454 0.5532049 -0.043860145 0.41196406 0.7930472 0.8859987 0.84488255
0.5668233 0.2606887 -0.10260384 0.29241115 -0.09730341 -0.14275223 0.5569092 0.32531306
00000000: ec36 923e 647c 883f 1777 8bbd 874c 82bd
00000010: ee57 043f 0602 91be a51e f6bc 34ec bb3e
00000020: e32d f7be 6896 2abf 828d 653f 1d04 023f
00000030: 27ed 743e 4fd1 31bf 588a c83d adee a63e
00000040: 76eb 7abe 805a 523b 98d2 463e e94c 90be
00000050: b45f 873f bde9 a9be 6de5 033e 0171 8bbe
00000060: 3836 88be 641b cdbe e6b7 853e d020 de3d
00000070: 70c5 c3be d0d7 7bbe 5d77 f63e bcca 1f3e
00000080: 24bd 273e c41d 7abe 1545 37be 586c 7cbd
00000090: 90e7 98bd 963b 8fbe 48c3 093d f831 263d
000000a0: 3075 d5be f3c3 6d3e 2ff4 00bf 3a4e e1be
000000b0: db9a 0c3f 0fe4 58be de31 56be 1070 9fbc
000000c0: 6ca3 803e c88e 06bf 388f 793f ccd1 a13e
000000d0: 4e85 1b3f 6830 0d3f 3fcd 6cbe 1997 363e
000000e0: 7b37 33bf 93f8 01bf f9b6 24bf f685 7cbf
000000f0: 5043 8d3f d7e1 45be dcb1 aa3e 4dbf 83be
00000100: dd83 0b3f 047a 15be 18cc 50be ef2d 85be
00000110: e2e5 143f 358b 2a3f 17bc 63bf ff62 83bf
00000120: 869a ea3d 7579 073f 8ddf 853e 62f1 bc3e
00000130: e0f2 c5be 4b8f 543f 15e9 4c3f 1121 b9bb
00000140: ec94 083f 66fa 98be d4eb f63d 4956 9ebe
00000150: 5c6f 4ebe 34bf f1bd c0a5 a93c 34e9 7a3e
00000160: 7e63 e9be 9cc7 c93e 702c 9a3d 9dad 973e
00000170: 10c8 9ebc 581f b7be 3a07 66be ea47 97be
00000180: 6fc7 ae3e fc28 8cbe bd15 11be a5ea e3bd
00000190: 1d41 65be 0830 f13d 5718 ccbe cd8e 95be
000001a0: d055 b6bf 5818 313e 9d6f 793e b261 a6bb
000001b0: 966f 0fbd 984a 103e 2eb0 993e 936f 3f3e
000001c0: 0035 df3d ac6f 38bf d69e 0d3f b2a6 33bd
000001d0: f4ec d23e 2405 4b3f d0d0 623f 394a 583f
000001e0: 551b 113f fd78 853e f621 d2bd eab6 953e
000001f0: 0347 c7bd a42d 12be 9a91 0e3f 6f8f a63e

mind_hidden1.bias f4 [32]
-0.10237625 -0.09145206 0.645936 0.5446745 -0.4233985 0.27184182 -0.10659913 -0.1152173
-0.41503525 -0.49708033 0.5960202 0.27392823 0.08889086 -0.39153963 1.2195133 -0.1635691
0.35453466 0.17978692 -0.08204566 -0.16790313 0.27155638 -0.39646107 0.13817196 -0.21506298
-0.11527449 -0.37424505 1.0663989 -0.44108313 0.51746786 -0.20462683 -0.121008195 -0.11532576
00000000: a4aa d1bd 384b bbbd 105c 253f ca6f 0b3f
00000010: b0c7 d8be da2e 8b3e a550 dabd 0cf7 ebbd
00000020: 807f d4be 5081 febe c894 183f 5240 8c3e
00000030: 690c b63d e277 c8be 0319 9c3f a87e 27be
00000040: 9185 b53e 101a 383e 8e07 a8bd ccee 2bbe
00000050: 7009 8b3e f2fc cabe f37c 0d3e 7839 5cbe
00000060: 0815 ecbd 0c9d bfbe c27f 883f a6d5 e1be
00000070: c678 043f b289 51be 25d3 f7bd e92f ecbd

mind_hidden2.weight f4 [16, 32]
0.81273085 0.021173732 -0.57832354 -0.20028271 0.33910236 0.24431612 0.01986877 -0.10521991
-0.12331316 0.21072587 0.14915255 0.24748088 -0.029405687 0.5650174 -0.054376233 0.43535447
0.36665037 0.9785555 0.5966206 0.5871308 0.04184514 -0.29932544 0.13035923 -0.0030859113
-0.04816367 -0.05920419 -0.08860773 0.2524384 -0.12052579 0.42585066 0.20946161 -0.027901012
-0.17998888 0.46645167 0.30314562 0.53701305 0.0011291206 0.29538277 0.11652557 -0.35253593
0.03157112 -0.023649186 -0.34386796 -0.24330479 0.58888376 0.2756654 -0.074245036 0.5766829
-0.082288936 -0.28834665 0.16275913 -0.11972489 0.051974483 -0.2922336 0.05220963 -0.21366192
0.07467409 0.3447059 -0.34588557 -0.109032884 0.33400223 0.026122024 0.03487367 0.34470746
-0.1449476 -0.2529357 -0.19786394 -0.09802112 -0.16776064 -0.18347007 0.14281595 0.06008205
-0.11315885 -0.27467966 -0.111319765 -0.14921337 -0.11505297 -0.31894863 0.076165676 -0.25976402
-0.27534708 -0.28886485 0.14756742 -0.21284857 -0.14592946 0.2771295 0.1877242 0.20272443
-0.33570126 -0.25353307 -0.1334703 0.29206958 0.036168665 -0.26442158 0.0022138953 -0.2745946
-0.14825766 0.0046845917 0.29694015 0.32755122 -0.0616495 0.6123994 -0.12734243 0.06726945
0.13985294 0.09494537 -0.10881945 0.39076057 -0.036800407 -0.18882549 0.4728788 0.42022845
0.56846523 0.11333016 -0.26911676 -0.13257268 0.3739197 -0.34677723 -0.121674635 -0.24111119
0.20013142 0.14622432 -0.04999221 -0.082251914 0.3750855 -0.40314707 -0.17501391 0.2011076
-0.21528865 -0.040323038 0.008199813 -0.03760465 -0.3325827 0.13492006 -0.16059509 -0.18337385
0.08446938 -0.18450609 -0.1633981 -0.11912979 -0.16462429 -0.14765714 -0.09534836 0.07754265
-0.28621095 -0.21836914 -0.013865645 0.024049828 0.14891452 -0.24835144 0.11285317 0.20095614
0.19176377 -0.32930723 -0.13562788 -0.30390233 -0.23747069 0.17405748 -0.059358444 0.15015814
-0.20753807 0.053725928 -0.21384956 0.17673853 -0.15463683 -0.08865672 -0.306754 0.0011679828
0.33569196 0.1716071 -0.18863522 0.0047548413 -0.038766593 -0.2846367 0.27721807 0.0056995153
0.07445729 -0.1427751 -0.16543439 0.058297276 0.13071254 0.07930133 -0.1703933 0.3432642
-0.0520446 -0.21652143 -0.16536139 0.34804532 1.7017126e-05 -0.047992826 -0.1471354 -0.09268239
-0.25724778 -0.28206497 0.4231436 0.5356535 0.33739612 0.06272805 0.20243706 -0.1890167
0.2109159 0.25510797 0.4187645 0.41848913 0.2565754 0.007085517 0.5872297 -0.102162965
0.36171558 0.09211291 -0.036338985 -0.39916667 0.06583649 -0.18592416 -0.10207341 -0.22577442
-0.3125045 0.023022175 0.42747876 0.31452182 0.45113078 -0.29542124 -0.29000667 0.13035576
0.298694 -0.3871716 0.32761258 0.23619752 0.021417052 -0.3756779 0.32292238 0.24675323
0.23412344 -0.23910302 0.48529023 -0.20702374 0.25519672 -0.29325846 0.6720297 -0.24685842
0.0055958047 0.12608947 0.15604429 0.17361961 -0.3679403 -0.1358363 0.4479396 -0.093079895
0.07870442 -0.13071802 0.98901886 0.20437615 0.23766072 -0.30656457 -0.37395898 0.048139125
00000000: 210f 503f 8974 ad3c 030d 14bf e916 4dbe
00000010: d39e ad3e 012e 7a3e d5c3 a23c 897d d7bd
00000020: 9c8b fcbd 86c8 573e 72bb 183e a16b 7d3e
00000030: 32e4 f0bc fba4 103f 9db9 5ebd c8e6 de3e
00000040: 99b9 bb3e 9d82 7a3f 21bc 183f 344e 163f
00000050: cf65 2b3d 2f41 99be e47c 053e 003d 4abb
00000060: 4547 45bd 1880 72bd f877 b5bd 9b3f 813e
00000070: 3ad6 f6bd 1909 da3e 1b7d 563e aa90 e4bc
00000080: 014f 38be c1d2 ee3e e735 9b3e b079 093f
00000090: 00ff 933a 693c 973e f5a4 ee3d 977f b4be
000000a0: b850 013d f0bb c1bc 760f b0be e424 79be
000000b0: 16c1 163f 0424 8d3e c80d 98bd 7ea1 133f
000000c0: 1a87 a8bd 2ca2 93be 54aa 263e 5332 f5bd
000000d0: 32e3 543d a49f 95be c4d9 553d 31ca 5abe
000000e0: bbee 983d 4b7d b03e ea17 b1be a24c dfbd
000000f0: 5702 ab3e dbfd d53c b2d7 0e3d 7f7d b03e
00000100: 256d 14be ca80 81be d89c 4abe 4cbf c8bd
00000110: 72c9 2bbe 94df 3bbe 583e 123e 9818 763d
00000120: d4bf e7bd d0a2 8cbe 9efb e3bd 64cb 18be
00000130: e4a0 ebbd 3c4d a3be c0fc 9b3d caff 84be
00000140: 4bfa 8cbe 18e6 93be ea1b 173e faf4 59be
00000150: 886e 15be ebe3 8d3e c63a 403e fe96 4f3e
00000160: 09e1 abbe 16cf 81be 70ac 08be 258a 953e
00000170: 9825 143d 4462 87be 0017 113b aa97 8cbe
00000180: dbd0 17be 3481 993b 8a08 983e cbb4 a73e
00000190: 3084 7cbd 35c6 1c3f 0e66 02be 91c4 893d
000001a0: 9c35 0f3e b872 c23d bbdc debd c511 c83e
000001b0: 06bc 16bd 785b 41be 2c1d f23e 2f28 d73e
000001c0: f086 113f a519 e83d acc9 89be 22c1 07be
000001d0: 6772 bf3e c98c b1be 8d30 f9bd dae5 76be
000001e0: 40ef 4c3e d4bb 153e a2c4 4cbd b173 a8bd
000001f0: 350b c03e 4b69 cebe d936 33be 27ef 4d3e
00000200: a174 5cbe c529 25bd 8258 063c 5507 1abd
00000210: 4848 aabe 7c28 0a3e 0a73 24be 5bc6 3bbe
00000220: 48fe ac3d 2aef 3cbe d551 27be 52fa f3bd
00000230: 4593 28be 6f33 17be 0046 c3bd aece 9e3d
00000240: 3e8a 92be 299c 5fbe bb2c 63bc 2504 c53c
00000250: 0c7d 183e d74f 7ebe 901f e73d 72c7 4d3e
00000260: b95d 443e f59a a8be 09e2 0abe 1699 9bbe
00000270: 842b 73be 203c 323e d721 73bd 0ec3 193e
00000280: dc84 54be b80f 5c3d 61fb 5abe f2fa 343e
00000290: 1e59 1ebe a891 b5bd dc0e 9dbe 0017 993a
000002a0: d1df ab3e c6b9 2f3e 9729 41be 80ce 9b3b
000002b0: b8c9 1ebd e7bb 91be 87ef 8d3e 00c3 ba3b
000002c0: 107d 983d a333 12be a267 29be 20c9 6e3d
000002d0: 82d9 053e bc68 a23d 957b 2ebe 53c0 af3e
000002e0: b82c 55bd cbb7 5dbe 7f54 29be ff32 b23e
000002f0: 00c0 8e37 2094 44bd aaaa 16be 44d0 bdbd
00000300: fbb5 83be d26a 90be 47a6 d83e 9620 093f
00000310: 2fbf ac3e 9077 803d a94b 4f3e 988d 41be
00000320: 56fa 573e 839d 823e 4d68 d63e 3544 d63e
00000330: da5d 833e a02d e83b b054 163f d13a d1bd
00000340: c932 b93e b1a5 bc3d 30d8 14bd 935f ccbe
00000350: 48d5 863d e762 3ebe dd0b d1bd 6931 67be
00000360: 9700 a0be 0099 bc3c 7fde da3e 0109 a13e
00000370: 9dfa e63e 7441 97be c17b 94be fb7b 053e
00000380: 6cee 983e 5b3b c6be d6bc a73e c3dd 713e
00000390: d072 af3c db58 c0be 1556 a53e e1ac 7c3e
000003a0: 0ebe 6f3e 6cd7 74be f677 f83e 08fe 53be
000003b0: 25a9 823e f925 96be 230a 2c3f 74c8 7cbe
000003c0: 035d b73b 991d 013e 13ca 1f3e 57c9 313e
000003d0: ac62 bcbe ac18 0bbe 5758 e53e aca0 bebd
000003e0: c82f a13d f2da 05be 5730 7d3f fb47 513e
000003f0: 555d 733e 08f6 9cbe 8d77 bfbe 882d 453d

mind_hidden2.bias f4 [16]
0.30803356 -0.07012745 -0.12854749 0.35037053 -0.08273163 -0.037744373 0.33310512 0.5675672
0.026465405 -0.0065806764 -0.009894742 0.2611833 0.48585328 0.14773157 -0.17242888 0.17187509
00000000: 93b6 9d3e fb9e 8fbd f4a1 03be c463 b33e
00000010: 336f a9bd d899 1abd c18c aa3e 164c 113f
00000020: facd d83c b7a2 d7bb 8e1d 22bc d1b9 853e
00000030: c3c1 f83e f246 173e 3291 30be 0600 303e

mind_output.weight f4 [3, 16]
0.7454317 0.7687277 -0.55764246 0.5285766 -0.46513334 0.5037957 -0.418239 -1.4512312
0.13680062 -0.5340384 -0.6403955 -0.26331055 -0.42336386 0.6690283 -0.1752179 0.52015746
1.2703463 -0.4985031 0.1075266 -1.0416999 -0.47409877 -0.17657167 -1.106857 0.32300434
0.015302309 0.37298626 0.63369185 -0.57547903 -0.42513543 -0.80336654 0.026113413 0.37167567
-0.85487485 0.59630567 -0.28062156 -0.5934905 0.010994534 -0.35064945 -0.3449163 -0.06543345
0.20961991 0.47692385 1.2908264 -0.066304795 -1.0852686 1.1329195 -0.3774519 -0.60824925
00000000: 9dd4 3e3f 57cb 443f a8c1 0ebf cc50 073f
00000010: f525 eebe c1f8 003f 6c23 d6be f2c1 b9bf
00000020: 7615 0c3e beb6 08bf f6f0 23bf a4d0 86be
00000030: 26c3 d8be 7045 2b3f 526c 33be 0a29 053f
00000040: b59a a23f cc3b ffbe e836 dc3d 6c56 85bf
00000050: 13bd f2be 34cf 34be 7dad 8dbf d360 a53e
00000060: 89b6 7a3c 0ef8 be3e a139 223f 9852 13bf
00000070: 5aab d9be 6ea9 4dbf cceb d53c 464c be3e
00000080: 14d9 5abf 7da7 183f a1ad 8fbe feee 17bf
00000090: 6b22 343c 5388 b3be df98 b0be f901 86bd
000000a0: 9aa6 563e 5d2f f43e cd39 a53f cfca 87bd
000000b0: 15ea 8abf 8203 913f 6041 c1be 39b6 1bbf

mind_output.bias f4 [3]
-0.60173476 0.5956146 -1.0386301
00000000: 4a0b 1abf 337a 183f d5f1 84bf
